…
snapshot_prefix: "vgg_cnn_m_1024_fast_rcnn"
average_loss: 100
I1217 12:04:37.591001  4290 solver.cpp:61] Creating training net from train_net file: models/VGG_CNN_M_1024/train.prototxt
I1217 12:04:37.591322  4290 net.cpp:42] Initializing net from parameters: 
name: "VGG_CNN_M_1024"
state {
  phase: TRAIN
}
layer {
  name: "data"
  type: "Python"
  top: "data"
  top: "rois"
  top: "labels"
  top: "bbox_targets"
  top: "bbox_loss_weights"
  python_param {
    module: "roi_data_layer.layer"
    layer: "RoIDataLayer"
    param_str: "\'num_classes\': 2"
  }
}
layer {
  name: "conv1"
  type: "Convolution"
  bottom: "data"
  top: "conv1"
  param {
    lr_mult: 0
    decay_mult: 0
  }
  param {
    lr_mult: 0
    decay_mult: 0
  }
  convolution_param {
    num_output: 96
    kernel_size: 7
    stride: 2
  }
}
layer {
  name: "relu1"
  type: "ReLU"
  bottom: "conv1"
  top: "conv1"
}
layer {
  name: "norm1"
  type: "LRN"
  bottom: "conv1"
  top: "norm1"
  lrn_param {
    local_size: 5
    alpha: 0.0005
    beta: 0.75
    k: 2
  }
}
layer {
  name: "pool1"
  type: "Pooling"
  bottom: "norm1"
  top: "pool1"
  pooling_param {
    pool: MAX
    kernel_size: 3
    stride: 2
  }
}
layer {
  name: "conv2"
  type: "Convolution"
  bottom: "pool1"
  top: "conv2"
  param {
    lr_mult: 1
    decay_mult: 1
  }
  param {
    lr_mult: 2
    decay_mult: 0
  }
  convolution_param {
    num_output: 256
    pad: 1
    kernel_size: 5
    stride: 2
  }
}
layer {
  name: "relu2"
  type: "ReLU"
  bottom: "conv2"
  top: "conv2"
}
layer {
  name: "norm2"
  type: "LRN"
  bottom: "conv2"
  top: "norm2"
  lrn_param {
    local_size: 5
    alpha: 0.0005
    beta: 0.75
    k: 2
  }
}
layer {
  name: "pool2"
  type: "Pooling"
  bottom: "norm2"
  top: "pool2"
  pooling_param {
    pool: MAX
    kernel_size: 3
    stride: 2
  }
}
layer {
  name: "conv3"
  type: "Convolution"
  bottom: "pool2"
  top: "conv3"
  param {
    lr_mult: 1
    decay_mult: 1
  }
  param {
    lr_mult: 2
    decay_mult: 0
  }
  convolution_param {
    num_output: 512
    pad: 1
    kernel_size: 3
  }
}
layer {
  name: "relu3"
  type: "ReLU"
  bottom: "conv3"
  top: "conv3"
}
layer {
  name: "conv4"
  type: "Convolution"
  bottom: "conv3"
  top: "conv4"
  param {
    lr_mult: 1
    decay_mult: 1
  }
  param {
    lr_mult: 2
    decay_mult: 0
  }
  convolution_param {
    num_output: 512
    pad: 1
    kernel_size: 3
  }
}
layer {
  name: "relu4"
  type: "ReLU"
  bottom: "conv4"
  top: "conv4"
}
layer {
  name: "conv5"
  type: "Convolution"
  bottom: "conv4"
  top: "conv5"
  param {
    lr_mult: 1
    decay_mult: 1
  }
  param {
    lr_mult: 2
    decay_mult: 0
  }
  convolution_param {
    num_output: 512
    pad: 1
    kernel_size: 3
  }
}
layer {
  name: "relu5"
  type: "ReLU"
  bottom: "conv5"
  top: "conv5"
}
layer {
  name: "roi_pool5"
  type: "ROIPooling"
  bottom: "conv5"
  bottom: "rois"
  top: "pool5"
  roi_pooling_param {
    pooled_h: 6
    pooled_w: 6
    spatial_scale: 0.0625
  }
}
layer {
  name: "fc6"
  type: "InnerProduct"
  bottom: "pool5"
  top: "fc6"
  param {
    lr_mult: 1
    decay_mult: 1
  }
  param {
    lr_mult: 2
    decay_mult: 0
  }
  inner_product_param {
    num_output: 4096
  }
}
layer {
  name: "relu6"
  type: "ReLU"
  bottom: "fc6"
  top: "fc6"
}
layer {
  name: "drop6"
  type: "Dropout"
  bottom: "fc6"
  top: "fc6"
  dropout_param {
    dropout_ratio: 0.5
  }
}
layer {
  name: "fc7"
  type: "InnerProduct"
  bottom: "fc6"
  top: "fc7"
  param {
    lr_mult: 1
    decay_mult: 1
  }
  param {
    lr_mult: 2
    decay_mult: 0
  }
  inner_product_param {
    num_output: 1024
  }
}
layer {
  name: "relu7"
  type: "ReLU"
  bottom: "fc7"
  top: "fc7"
}
layer {
  name: "drop7"
  type: "Dropout"
  bottom: "fc7"
  top: "fc7"
  dropout_param {
    dropout_ratio: 0.5
  }
}
layer {
  name: "cls_score"
  type: "InnerProduct"
  bottom: "fc7"
  top: "cls_score"
  param {
    lr_mult: 1
    decay_mult: 1
  }
  param {
    lr_mult: 2
    decay_mult: 0
  }
  inner_product_param {
    num_output: 2
    weight_filler {
      type: "gaussian"
      std: 0.01
    }
    bias_filler {
      type: "constant"
      value: 0
    }
  }
}
layer {
  name: "bbox_pred"
  type: "InnerProduct"
  bottom: "fc7"
  top: "bbox_pred"
  param {
    lr_mult: 1
    decay_mult: 1
  }
  param {
    lr_mult: 2
    decay_mult: 0
  }
  inner_product_param {
    num_output: 8
    weight_filler {
      type: "gaussian"
      std: 0.001
    }
    bias_filler {
      type: "constant"
      value: 0
    }
  }
}
layer {
  name: "loss_cls"
  type: "SoftmaxWithLoss"
  bottom: "cls_score"
  bottom: "labels"
  top: "loss_cls"
  loss_weight: 1
}
layer {
  name: "loss_bbox"
  type: "SmoothL1Loss"
  bottom: "bbox_pred"
  bottom: "bbox_targets"
  bottom: "bbox_loss_weights"
  top: "loss_bbox"
  loss_weight: 1
}
I1217 12:04:37.591418  4290 layer_factory.hpp:74] Creating layer data
I1217 12:04:37.609247  4290 net.cpp:84] Creating Layer data
I1217 12:04:37.609272  4290 net.cpp:338] data -> data
I1217 12:04:37.609283  4290 net.cpp:338] data -> rois
I1217 12:04:37.609290  4290 net.cpp:338] data -> labels
I1217 12:04:37.609297  4290 net.cpp:338] data -> bbox_targets
I1217 12:04:37.609302  4290 net.cpp:338] data -> bbox_loss_weights
I1217 12:04:37.609309  4290 net.cpp:113] Setting up data
I1217 12:04:37.609681  4290 net.cpp:120] Top shape: 1 3 100 100 (30000)
I1217 12:04:37.609691  4290 net.cpp:120] Top shape: 1 5 (5)
I1217 12:04:37.609695  4290 net.cpp:120] Top shape: 1 (1)
I1217 12:04:37.609699  4290 net.cpp:120] Top shape: 1 8 (8)
I1217 12:04:37.609704  4290 net.cpp:120] Top shape: 1 8 (8)
I1217 12:04:37.609707  4290 layer_factory.hpp:74] Creating layer conv1
I1217 12:04:37.609715  4290 net.cpp:84] Creating Layer conv1
I1217 12:04:37.609719  4290 net.cpp:380] conv1 <- data
I1217 12:04:37.609725  4290 net.cpp:338] conv1 -> conv1
I1217 12:04:37.609732  4290 net.cpp:113] Setting up conv1
I1217 12:04:37.609758  4290 net.cpp:120] Top shape: 1 96 47 47 (212064)
I1217 12:04:37.609767  4290 layer_factory.hpp:74] Creating layer relu1
I1217 12:04:37.609773  4290 net.cpp:84] Creating Layer relu1
I1217 12:04:37.609776  4290 net.cpp:380] relu1 <- conv1
I1217 12:04:37.609781  4290 net.cpp:327] relu1 -> conv1 (in-place)
I1217 12:04:37.609786  4290 net.cpp:113] Setting up relu1
I1217 12:04:37.609791  4290 net.cpp:120] Top shape: 1 96 47 47 (212064)
I1217 12:04:37.609794  4290 layer_factory.hpp:74] Creating layer norm1
I1217 12:04:37.609800  4290 net.cpp:84] Creating Layer norm1
I1217 12:04:37.609803  4290 net.cpp:380] norm1 <- conv1
I1217 12:04:37.609807  4290 net.cpp:338] norm1 -> norm1
I1217 12:04:37.609813  4290 net.cpp:113] Setting up norm1
I1217 12:04:37.609819  4290 net.cpp:120] Top shape: 1 96 47 47 (212064)
I1217 12:04:37.609823  4290 layer_factory.hpp:74] Creating layer pool1
I1217 12:04:37.609829  4290 net.cpp:84] Creating Layer pool1
I1217 12:04:37.609833  4290 net.cpp:380] pool1 <- norm1
I1217 12:04:37.609836  4290 net.cpp:338] pool1 -> pool1
I1217 12:04:37.609843  4290 net.cpp:113] Setting up pool1
I1217 12:04:37.609849  4290 net.cpp:120] Top shape: 1 96 23 23 (50784)
I1217 12:04:37.609853  4290 layer_factory.hpp:74] Creating layer conv2
I1217 12:04:37.609858  4290 net.cpp:84] Creating Layer conv2
I1217 12:04:37.609861  4290 net.cpp:380] conv2 <- pool1
I1217 12:04:37.609865  4290 net.cpp:338] conv2 -> conv2
I1217 12:04:37.609871  4290 net.cpp:113] Setting up conv2
I1217 12:04:37.610482  4290 net.cpp:120] Top shape: 1 256 11 11 (30976)
I1217 12:04:37.610491  4290 layer_factory.hpp:74] Creating layer relu2
I1217 12:04:37.610496  4290 net.cpp:84] Creating Layer relu2
I1217 12:04:37.610499  4290 net.cpp:380] relu2 <- conv2
I1217 12:04:37.610504  4290 net.cpp:327] relu2 -> conv2 (in-place)
I1217 12:04:37.610508  4290 net.cpp:113] Setting up relu2
I1217 12:04:37.610513  4290 net.cpp:120] Top shape: 1 256 11 11 (30976)
I1217 12:04:37.610517  4290 layer_factory.hpp:74] Creating layer norm2
I1217 12:04:37.610527  4290 net.cpp:84] Creating Layer norm2
I1217 12:04:37.610530  4290 net.cpp:380] norm2 <- conv2
I1217 12:04:37.610535  4290 net.cpp:338] norm2 -> norm2
I1217 12:04:37.610540  4290 net.cpp:113] Setting up norm2
I1217 12:04:37.610546  4290 net.cpp:120] Top shape: 1 256 11 11 (30976)
I1217 12:04:37.610549  4290 layer_factory.hpp:74] Creating layer pool2
I1217 12:04:37.610555  4290 net.cpp:84] Creating Layer pool2
I1217 12:04:37.610558  4290 net.cpp:380] pool2 <- norm2
I1217 12:04:37.610563  4290 net.cpp:338] pool2 -> pool2
I1217 12:04:37.610568  4290 net.cpp:113] Setting up pool2
I1217 12:04:37.610574  4290 net.cpp:120] Top shape: 1 256 5 5 (6400)
I1217 12:04:37.610577  4290 layer_factory.hpp:74] Creating layer conv3
I1217 12:04:37.610582  4290 net.cpp:84] Creating Layer conv3
I1217 12:04:37.610585  4290 net.cpp:380] conv3 <- pool2
I1217 12:04:37.610590  4290 net.cpp:338] conv3 -> conv3
I1217 12:04:37.610595  4290 net.cpp:113] Setting up conv3
I1217 12:04:37.611752  4290 net.cpp:120] Top shape: 1 512 5 5 (12800)
I1217 12:04:37.611760  4290 layer_factory.hpp:74] Creating layer relu3
I1217 12:04:37.611766  4290 net.cpp:84] Creating Layer relu3
I1217 12:04:37.611769  4290 net.cpp:380] relu3 <- conv3
I1217 12:04:37.611773  4290 net.cpp:327] relu3 -> conv3 (in-place)
I1217 12:04:37.611778  4290 net.cpp:113] Setting up relu3
I1217 12:04:37.611783  4290 net.cpp:120] Top shape: 1 512 5 5 (12800)
I1217 12:04:37.611786  4290 layer_factory.hpp:74] Creating layer conv4
I1217 12:04:37.611791  4290 net.cpp:84] Creating Layer conv4
I1217 12:04:37.611794  4290 net.cpp:380] conv4 <- conv3
I1217 12:04:37.611799  4290 net.cpp:338] conv4 -> conv4
I1217 12:04:37.611804  4290 net.cpp:113] Setting up conv4
I1217 12:04:37.613605  4290 net.cpp:120] Top shape: 1 512 5 5 (12800)
I1217 12:04:37.613620  4290 layer_factory.hpp:74] Creating layer relu4
I1217 12:04:37.613626  4290 net.cpp:84] Creating Layer relu4
I1217 12:04:37.613629  4290 net.cpp:380] relu4 <- conv4
I1217 12:04:37.613636  4290 net.cpp:327] relu4 -> conv4 (in-place)
I1217 12:04:37.613641  4290 net.cpp:113] Setting up relu4
I1217 12:04:37.613646  4290 net.cpp:120] Top shape: 1 512 5 5 (12800)
I1217 12:04:37.613648  4290 layer_factory.hpp:74] Creating layer conv5
I1217 12:04:37.613653  4290 net.cpp:84] Creating Layer conv5
I1217 12:04:37.613656  4290 net.cpp:380] conv5 <- conv4
I1217 12:04:37.613662  4290 net.cpp:338] conv5 -> conv5
I1217 12:04:37.613668  4290 net.cpp:113] Setting up conv5
I1217 12:04:37.622109  4290 net.cpp:120] Top shape: 1 512 5 5 (12800)
I1217 12:04:37.622136  4290 layer_factory.hpp:74] Creating layer relu5
I1217 12:04:37.622143  4290 net.cpp:84] Creating Layer relu5
I1217 12:04:37.622148  4290 net.cpp:380] relu5 <- conv5
I1217 12:04:37.622154  4290 net.cpp:327] relu5 -> conv5 (in-place)
I1217 12:04:37.622160  4290 net.cpp:113] Setting up relu5
I1217 12:04:37.622165  4290 net.cpp:120] Top shape: 1 512 5 5 (12800)
I1217 12:04:37.622169  4290 layer_factory.hpp:74] Creating layer roi_pool5
I1217 12:04:37.622175  4290 net.cpp:84] Creating Layer roi_pool5
I1217 12:04:37.622179  4290 net.cpp:380] roi_pool5 <- conv5
I1217 12:04:37.622182  4290 net.cpp:380] roi_pool5 <- rois
I1217 12:04:37.622189  4290 net.cpp:338] roi_pool5 -> pool5
I1217 12:04:37.622194  4290 net.cpp:113] Setting up roi_pool5
I1217 12:04:37.622197  4290 roi_pooling_layer.cpp:30] Spatial scale: 0.0625
I1217 12:04:37.622212  4290 net.cpp:120] Top shape: 1 512 6 6 (18432)
I1217 12:04:37.622215  4290 layer_factory.hpp:74] Creating layer fc6
I1217 12:04:37.622225  4290 net.cpp:84] Creating Layer fc6
I1217 12:04:37.622228  4290 net.cpp:380] fc6 <- pool5
I1217 12:04:37.622233  4290 net.cpp:338] fc6 -> fc6
I1217 12:04:37.622239  4290 net.cpp:113] Setting up fc6
I1217 12:04:38.362226  4290 net.cpp:120] Top shape: 1 4096 (4096)
I1217 12:04:38.362257  4290 layer_factory.hpp:74] Creating layer relu6
I1217 12:04:38.362268  4290 net.cpp:84] Creating Layer relu6
I1217 12:04:38.362274  4290 net.cpp:380] relu6 <- fc6
I1217 12:04:38.362282  4290 net.cpp:327] relu6 -> fc6 (in-place)
I1217 12:04:38.362294  4290 net.cpp:113] Setting up relu6
I1217 12:04:38.362300  4290 net.cpp:120] Top shape: 1 4096 (4096)
I1217 12:04:38.362303  4290 layer_factory.hpp:74] Creating layer drop6
I1217 12:04:38.362310  4290 net.cpp:84] Creating Layer drop6
I1217 12:04:38.362313  4290 net.cpp:380] drop6 <- fc6
I1217 12:04:38.362318  4290 net.cpp:327] drop6 -> fc6 (in-place)
I1217 12:04:38.362323  4290 net.cpp:113] Setting up drop6
I1217 12:04:38.362329  4290 net.cpp:120] Top shape: 1 4096 (4096)
I1217 12:04:38.362331  4290 layer_factory.hpp:74] Creating layer fc7
I1217 12:04:38.362339  4290 net.cpp:84] Creating Layer fc7
I1217 12:04:38.362341  4290 net.cpp:380] fc7 <- fc6
I1217 12:04:38.362346  4290 net.cpp:338] fc7 -> fc7
I1217 12:04:38.362356  4290 net.cpp:113] Setting up fc7
I1217 12:04:38.400542  4290 net.cpp:120] Top shape: 1 1024 (1024)
I1217 12:04:38.400569  4290 layer_factory.hpp:74] Creating layer relu7
I1217 12:04:38.400579  4290 net.cpp:84] Creating Layer relu7
I1217 12:04:38.400584  4290 net.cpp:380] relu7 <- fc7
I1217 12:04:38.400593  4290 net.cpp:327] relu7 -> fc7 (in-place)
I1217 12:04:38.400599  4290 net.cpp:113] Setting up relu7
I1217 12:04:38.400604  4290 net.cpp:120] Top shape: 1 1024 (1024)
I1217 12:04:38.400607  4290 layer_factory.hpp:74] Creating layer drop7
I1217 12:04:38.400614  4290 net.cpp:84] Creating Layer drop7
I1217 12:04:38.400616  4290 net.cpp:380] drop7 <- fc7
I1217 12:04:38.400621  4290 net.cpp:327] drop7 -> fc7 (in-place)
I1217 12:04:38.400625  4290 net.cpp:113] Setting up drop7
I1217 12:04:38.400631  4290 net.cpp:120] Top shape: 1 1024 (1024)
I1217 12:04:38.400635  4290 layer_factory.hpp:74] Creating layer fc7_drop7_0_split
I1217 12:04:38.400641  4290 net.cpp:84] Creating Layer fc7_drop7_0_split
I1217 12:04:38.400645  4290 net.cpp:380] fc7_drop7_0_split <- fc7
I1217 12:04:38.400650  4290 net.cpp:338] fc7_drop7_0_split -> fc7_drop7_0_split_0
I1217 12:04:38.400656  4290 net.cpp:338] fc7_drop7_0_split -> fc7_drop7_0_split_1
I1217 12:04:38.400662  4290 net.cpp:113] Setting up fc7_drop7_0_split
I1217 12:04:38.400668  4290 net.cpp:120] Top shape: 1 1024 (1024)
I1217 12:04:38.400672  4290 net.cpp:120] Top shape: 1 1024 (1024)
I1217 12:04:38.400676  4290 layer_factory.hpp:74] Creating layer cls_score
I1217 12:04:38.400682  4290 net.cpp:84] Creating Layer cls_score
I1217 12:04:38.400686  4290 net.cpp:380] cls_score <- fc7_drop7_0_split_0
I1217 12:04:38.400691  4290 net.cpp:338] cls_score -> cls_score
I1217 12:04:38.400697  4290 net.cpp:113] Setting up cls_score
I1217 12:04:38.400733  4290 net.cpp:120] Top shape: 1 2 (2)
I1217 12:04:38.400739  4290 layer_factory.hpp:74] Creating layer bbox_pred
I1217 12:04:38.400745  4290 net.cpp:84] Creating Layer bbox_pred
I1217 12:04:38.400748  4290 net.cpp:380] bbox_pred <- fc7_drop7_0_split_1
I1217 12:04:38.400755  4290 net.cpp:338] bbox_pred -> bbox_pred
I1217 12:04:38.400760  4290 net.cpp:113] Setting up bbox_pred
I1217 12:04:38.400854  4290 net.cpp:120] Top shape: 1 8 (8)
I1217 12:04:38.400863  4290 layer_factory.hpp:74] Creating layer loss_cls
I1217 12:04:38.400869  4290 net.cpp:84] Creating Layer loss_cls
I1217 12:04:38.400873  4290 net.cpp:380] loss_cls <- cls_score
I1217 12:04:38.400877  4290 net.cpp:380] loss_cls <- labels
I1217 12:04:38.400882  4290 net.cpp:338] loss_cls -> loss_cls
I1217 12:04:38.400888  4290 net.cpp:113] Setting up loss_cls
I1217 12:04:38.400893  4290 layer_factory.hpp:74] Creating layer loss_cls
…
